…
2
To enable them in other operations, rebuild TensorFlow with the appropriate compiler flags.
2023-07-19 15:44:22.405778: I tensorflow/core/common_runtime/gpu/gpu_device.cc:1616] Created device /job:localhost/replica:0/task:0/device:GPU:0 with 3976 MB memory:  -> device: 0, name: NVIDIA GeForce GTX 1660, pci bus id: 0000:09:00.0, compute capability: 7.5
Model: "sequential"
_________________________________________________________________
 Layer (type)                Output Shape              Param #
=================================================================
 conv2d (Conv2D)             (None, 24, 24, 20)        520

 batch_normalization (BatchN  (None, 24, 24, 20)       80
 ormalization)

 max_pooling2d (MaxPooling2D  (None, 12, 12, 20)       0
 )

 dropout (Dropout)           (None, 12, 12, 20)        0

 conv2d_1 (Conv2D)           (None, 8, 8, 50)          25050

 batch_normalization_1 (Batc  (None, 8, 8, 50)         200
 hNormalization)

 max_pooling2d_1 (MaxPooling  (None, 4, 4, 50)         0
 2D)

 dropout_1 (Dropout)         (None, 4, 4, 50)          0

 flatten (Flatten)           (None, 800)               0

 dense (Dense)               (None, 10)                8010

=================================================================
Total params: 33,860
Trainable params: 33,720
Non-trainable params: 140
_________________________________________________________________
Epoch 1/15
2023-07-19 15:44:23.781714: I tensorflow/stream_executor/cuda/cuda_dnn.cc:384] Loaded cuDNN version 8600
47/47 [==============================] - 3s 26ms/step - loss: 1.0381 - accuracy: 0.7001 - val_loss: 1.7194 - val_accuracy: 0.5092
…
