…
To enable them in other operations, rebuild TensorFlow with the appropriate compiler flags.
2023-07-28 22:23:37.753733: I tensorflow/core/common_runtime/gpu/gpu_device.cc:1616] Created device /job:localhost/replica:0/task:0/device:GPU:0 with 3976 MB memory:  -> device: 0, name: NVIDIA GeForce GTX 1660, pci bus id: 0000:09:00.0, compute capability: 7.5
Model: "model"
_________________________________________________________________
 Layer (type)                Output Shape              Param #
=================================================================
 input_1 (InputLayer)        [(None, 28, 28, 1)]       0

 conv2d (Conv2D)             (None, 26, 26, 32)        320

 max_pooling2d (MaxPooling2D  (None, 13, 13, 32)       0
 )

 conv2d_1 (Conv2D)           (None, 11, 11, 64)        18496

 max_pooling2d_1 (MaxPooling  (None, 5, 5, 64)         0
 2D)

 conv2d_2 (Conv2D)           (None, 3, 3, 64)          36928

 flatten (Flatten)           (None, 576)               0

 dense (Dense)               (None, 64)                36928

 dense_1 (Dense)             (None, 10)                650

=================================================================
Total params: 93,322
Trainable params: 93,322
Non-trainable params: 0
_________________________________________________________________
Epoch 1/50
2023-07-28 22:23:39.003673: I tensorflow/stream_executor/cuda/cuda_dnn.cc:384] Loaded cuDNN version 8600
12/12 [==============================] - 3s 85ms/step - loss: 0.1612 - accuracy: 0.9535 - val_loss: 0.2172 - val_accuracy: 0.9339
…
