…
2
To enable them in other operations, rebuild TensorFlow with the appropriate compiler flags.
2023-07-19 15:43:41.602669: I tensorflow/core/common_runtime/gpu/gpu_device.cc:1616] Created device /job:localhost/replica:0/task:0/device:GPU:0 with 3976 MB memory:  -> device: 0, name: NVIDIA GeForce GTX 1660, pci bus id: 0000:09:00.0, compute capability: 7.5
Model: "sequential"
_________________________________________________________________
 Layer (type)                Output Shape              Param #
=================================================================
 dense (Dense)               (None, 128)               100480

 dropout (Dropout)           (None, 128)               0

 dense_1 (Dense)             (None, 128)               16512

 dropout_1 (Dropout)         (None, 128)               0

 dense_2 (Dense)             (None, 10)                1290

=================================================================
Total params: 118,282
Trainable params: 118,282
Non-trainable params: 0
_________________________________________________________________
Epoch 1/35
94/94 [==============================] - 1s 5ms/step - loss: 0.8441 - accuracy: 0.7367 - val_loss: 0.2736 - val_accuracy: 0.9175
Epoch 2/35
94/94 [==============================] - 0s 3ms/step - loss: 0.3342 - accuracy: 0.9013 - val_loss: 0.1929 - val_accuracy: 0.9440
…
